model/keypoint_classifier/keypoint_classifier.tflite (tflite, 6704 bytes, 6 tensors)

sequential_1/dense_5/BiasAdd/ReadVariableOp f4 [7]
-0.23985073 0.3868998 0.13731076 0.09436331 0.2703894 -0.07898609 -0.3592922
00000000: 6e9b 75be bb17 c63e 319b 0c3e 8d41 c13d
00000010: 7b70 8a3e 76c3 a1bd 26f5 b7be

sequential_1/dense_4/BiasAdd/ReadVariableOp f4 [10]
0.0017253323 0.92128867 0.07808838 1.1411723 0.413722 0.2867563 0.7211803 0.60936147
0.31154445 0.33444503
00000000: 8c24 e23a 93d9 6b3f cdec 9f3d ef11 923f
00000010: 5fd3 d33e b9d1 923e 469f 383f 1dff 1b3f
00000020: c182 9f3e 613c ab3e

sequential_1/dense_3/BiasAdd/ReadVariableOp f4 [20]
-0.596506 -0.6596277 -0.59755796 -0.4626142 -0.75170875 -0.7508797 -0.3514102 -0.8020685
-0.8541127 -0.3454196 -0.81264144 -0.7746599 -0.49374443 -0.5379851 -0.5326513 0.05294408
0.47066876 -0.33739045 -0.60381156 -0.15220693
00000000: 9eb4 18bf 5cdd 28bf 8ff9 18bf c5db ecbe
00000010: fc6f 40bf a739 40bf 0aec b3be 5c54 4dbf
00000020: 21a7 5abf d6da b0be 4509 50bf 1c50 46bf
00000030: 12cc fcbe 64b9 09bf d65b 08bf e4db 583d
00000040: 7ffb f03e 71be acbe 6593 1abf 22dc 1bbe

sequential_1/dense_3/MatMul f4 [20, 42]
0.07515025 0.122600704 0.07321504 -0.266372 0.65790707 -0.30762106 0.70144343 -0.63855994
0.9312609 -0.7892474 0.23606093 -0.26245683 -0.10031506 0.02914344 -0.17109434 0.22404212
-0.10526702 0.15922077 0.24631704 -0.24684574 -0.1729674 -0.017541004 -0.23081721 0.075947426
-0.1662456 0.027748639 0.1804615 -0.044959567 -0.27455288 0.03293463 -0.32228652 0.1962121
-0.15886427 0.23221382 0.10337438 0.27211857 -0.20599577 0.29254517 -0.2884055 0.60681534
-0.02975331 0.52712494 0.08259997 -0.24589008 -0.38298684 -1.0277388 -0.16304368 -0.5752427
0.02043344 -0.2987438 0.15513529 -0.18758793 0.07521687 -0.232595 -0.071230285 0.10676808
0.0014225459 0.36189455 -0.02814807 0.21723713 0.1328315 -0.14762649 -0.1358537 -0.24638449
-0.33419016 -0.5748899 -0.28161523 -0.10053396 0.12069998 0.063488975 -0.015350025 -0.14347045
-0.06975756 0.0007377239 0.0026928873 0.20737126 0.16052516 0.34916493 0.016616577 0.1361398
0.0015177813 0.29495534 0.03407719 0.24717598 -0.10347998 -0.2841879 0.026945911 0.07583746
-0.056204077 0.023814678 -0.014256619 0.023253368 0.0033844095 0.032978855 0.033554144 0.093156114
0.036223624 0.064153984 0.0667922 0.13856873 0.053161483 0.09185687 -0.0025354063 0.099941485
0.010564128 0.008177319 -0.031327467 0.04186656 -0.9855584 -1.6282492 0.014565463 0.025166908
0.04905037 0.019012243 0.0895493 0.08926143 0.08075805 0.2339377 0.0058341557 0.002171706
0.055477425 -0.0136189535 0.04211635 -0.003379231 0.027813902 0.013061566 0.04816878 0.11088017
-0.0375464 0.15727702 -0.013644711 0.06421256 -0.02320434 0.060836785 -0.029629486 0.042918753
-0.022741338 0.076717764 -0.037982114 0.045071468 -0.006865055 0.07904735 -0.0188266 0.047834348
-0.0072109476 0.09948133 -0.039569817 0.023686284 -0.017488789 0.07724922 0.9472535 -1.5050018
-0.04986407 0.033628713 -0.03323345 0.047181636 -0.053308126 0.058737017 -0.077342875 0.153224
-0.043407723 0.014812508 -0.017061036 0.021190478 -0.017402776 0.01786802 -0.014393293 0.010452181
-0.2708964 -0.0987975 0.4733395 -0.27090928 0.26842272 -0.101342484 0.19118401 -0.052846573
0.15676673 -0.038001437 0.027195586 0.07017579 0.019945467 0.057648286 -0.09959592 0.046918206
-0.18750152 0.016732296 -0.044631228 0.07194357 -0.028039781 0.116126604 -0.13781516 0.108799696
-0.17781582 -0.008172349 -0.07420419 0.06547966 -0.013478771 0.09274181 -0.022564016 0.07357704
-0.023173431 0.02280695 -0.06439563 0.05361104 0.038817387 -0.092069596 0.36479476 -0.5327525
1.8444047 -1.4537148 -0.09278095 -0.008269578 -0.36102587 -0.22900279 -0.1253854 -0.16804914
-0.09332377 -0.15177548 -0.11042399 -0.1539219 -0.18284312 -0.022114735 0.02260709 0.08238281
0.16243824 0.101216875 0.17052734 0.08479927 -0.16873524 0.016490985 0.0145133 0.09228852
0.13975081 0.054575004 0.0885471 -0.12205206 -0.17299017 0.03256265 -0.02208909 0.09505841
-0.04864761 0.13547026 -0.24836947 0.17843072 -0.27434224 0.059264805 -0.15958108 0.034832563
-0.432086 -1.5245035 -0.6510498 0.268879 0.13044122 0.10536009 -0.4356925 -0.84132177
00000000: 60e8 993d 1416 fb3d c4f1 953d e961 88be
00000010: 996c 283f 8280 9dbe cc91 333f aa78 23bf
00000020: 1d67 6e3f 1e0c 4abf f5b9 713e be60 86be
00000030: fb71 cdbd 39be ee3c 5b33 2fbe 4c6b 653e
00000040: 3c96 d7bd c50a 233e 893a 7c3e 21c5 7cbe
00000050: 5e1e 31be 27b2 8fbc 595b 6cbe 538a 9b3d
00000060: 493c 2abe 1d51 e33c e6ca 383e 8627 38bd
00000070: 3292 8cbe 76e6 063d bd02 a5be d3eb 483e
00000080: 51ad 22be 76c9 6d3e f2b5 d33d 2053 8b3e
00000090: 8ef0 52be 7bc8 953e e3a9 93be 4058 1b3f
000000a0: 37bd f3bc a9f1 063f 2c2a a93d 9cca 7bbe
000000b0: da16 c4be f28c 83bf ecf4 26be 1b43 13bf
000000c0: 0864 a73c f3f4 98be c9db 1e3e 0d17 40be
000000d0: 4d0b 9a3d 622d 6ebe 2fe1 91bd 39a9 da3d
000000e0: b874 ba3a 3e4a b93e c896 e6bc 6973 5e3e
000000f0: fb04 083e 662b 17be 3b1d 0bbe 374c 7cbe
00000100: f91a abbe fc2b 13bf df2f 90be c0e4 cdbd
00000110: 8d31 f73d 8206 823d ac7e 7bbc ebe9 12be
00000120: 0ddd 8ebd d063 413a 277b 303b 2259 543e
00000130: b560 243e bfc5 b23e 7d1f 883c 3b68 0b3e
00000140: 4af0 c63a 6304 973e 8694 0b3d b31b 7d3e
00000150: 50ed d3bd 1481 91be acbd dc3c ac50 9b3d
00000160: 3f36 66bd 0017 c33c 9894 69bc d97d be3c
00000170: f8cc 5d3b d614 073d 1270 093d a2c8 be3d
00000180: 395f 143d 2a63 833d 59ca 883d f6e4 0d3e
00000190: dbbf 593d 741f bc3d 0f29 26bb 1fae cc3d
000001a0: 2a15 2d3c 29fa 053c 3b51 00bd 457c 2b3d
000001b0: 8e4d 7cbf 786a d0bf fba3 6e3c d52a ce3c
000001c0: 0ae9 483d 90bf 9b3c a065 b73d b2ce b63d
000001d0: 7a64 a53d 5d8d 6f3e 722c bf3b 2e53 0e3b
000001e0: 4c3c 633d 0822 5fbc 3282 2c3d 1776 5dbb
000001f0: fbd9 e33c 2e00 563c a04c 453d 2415 e33d
00000200: 41ca 19bd 3a0d 213e 118e 5fbc e081 833d
00000210: 0717 bebc fe2f 793d 89b9 f2bc 93cb 2f3d
00000220: 0b4c babc 341e 9d3d 2293 1bbd dc9c 383d
00000230: 41f4 e0bb 94e3 a13d 3e3a 9abc f3ed 433d
00000240: d049 ecbb debc cb3d f613 22bd bd09 c23c
00000250: a644 8fbc d734 9e3d 357f 723f e6a3 c0bf
00000260: 443e 4cbd 43be 093d cc1f 08bd 8841 413d
00000270: 9f59 5abd 3a96 703d f165 9ebd c1e6 1c3e
00000280: 4ccc 31bd 29b0 723c 96c3 8bbc a797 ad3c
00000290: 4490 8ebc f45f 923c d9d1 6bbc a03f 2b3c
000002a0: efb2 8abe 5856 cabd 8e59 f23e 9fb4 8abe
000002b0: b46e 893e a68c cfbd bec5 433e a675 58bd
000002c0: 7587 203e 65a7 1bbd 47c9 de3c 53b8 8f3d
000002d0: ad64 a33c 9c20 6c3d f2f8 cbbd 4e2d 403d
000002e0: 6600 40be 2b12 893c 3ccf 36bd 2757 933d
000002f0: afb3 e5bc c9d3 ed3d 6b1f 0dbe 60d2 de3d
00000300: 5a15 36be 51e5 05bc 5ef8 97bd 331a 863d
00000310: 10d6 5cbc 6bef bd3d 2cd8 b8bc 8faf 963d
00000320: 35d6 bdbc a4d5 ba3c dbe1 83bd 4097 5b3d
00000330: fbfe 1e3d fc8e bcbd 61c6 ba3e 7862 08bf
00000340: 7415 ec3f 5413 babf f003 bebd 207d 07bc
00000350: 62d8 b8be b57f 6abe 0865 00be 1315 2cbe
00000360: 8820 bfbd 086b 1bbe f925 e2bd b49d 1dbe
00000370: 3a3b 3bbe f629 b5bc 8132 b93c 52b8 a83d
00000380: 3656 263e cb4a cf3d b89e 2e3e 3dab ad3d
00000390: eec8 2cbe 1a18 873c 31c9 6d3c c301 bd3d
000003a0: d61a 0f3e 0a8a 5f3d 2f58 b53d 6ef6 f9bd
000003b0: 5624 31be 6a60 053d 2ef4 b4bc fcad c23d
000003c0: b742 47bd b7b8 0a3e 9154 7ebe 8bb6 363e
000003d0: 9676 8cbe a7bf 723d 3969 23be 97ac 0e3d
000003e0: 603a ddbe ee22 c3bf 33ab 26bf 82aa 893e
000003f0: 6292 053e 08c7 d73d 1613 dfbe dd60 57bf

sequential_1/dense_4/MatMul f4 [10, 20]
0.91394085 0.16214949 0.14138864 0.26830575 0.001976596 -0.11040819 0.4665208 1.6539109
0.1097685 0.28282294 0.35839266 0.85159403 1.3528023 1.0242748 1.0789949 0.25665033
0.24150895 1.4949352 0.3197854 0.023255896 0.413185 0.79644686 -0.38703668 -0.8138162
0.044131212 0.21628645 -0.12525022 0.34255126 0.15420221 -0.7779633 0.0573012 -0.16265357
-0.091203675 0.6904209 0.44169164 -1.1334769 -0.6926944 -0.027287865 0.1291516 0.28425735
-0.4634328 -0.37643802 -0.09177323 -0.1770387 -0.14207749 0.27895126 -0.4634845 -0.49637625
0.9851811 -0.2510665 0.32044062 0.614785 -0.08321673 0.34662738 0.6788329 -0.04423754
-0.18390237 -0.20368315 0.5872687 0.39265287 -0.6983269 -1.4979237 -1.4323615 -0.89165014
0.64094025 0.9134801 -2.3222632 -0.3511251 -0.42491314 0.7303816 -0.39474165 0.958131
0.36539984 -1.3189245 0.73906285 0.10336144 0.30131808 0.39613566 -0.49693918 -1.7900242
0.809908 0.53860825 -0.022925166 -0.09021735 0.225688 0.78510535 0.7317341 0.35682133
-0.8624226 -1.2905716 -0.22402842 0.058773827 -0.79731816 0.8244324 -2.5113125 0.066406466
-0.31608292 -0.38130102 -2.028215 0.21173322 0.45512572 0.26857105 -1.6176122 -1.9250075
1.0683436 0.824933 0.7947322 0.45498368 0.6385308 -0.6133433 -1.8035867 0.7923172
0.1567958 -0.011498956 0.12809283 -0.050263096 0.10934662 0.3490089 0.21059977 0.3277903
0.08735375 0.18575948 -0.014377202 0.14292616 -0.27233887 -1.7845329 -0.14377706 -0.1030775
0.61936915 0.008956476 0.36698088 -0.4602255 0.2535997 0.24139456 -1.5147934 -1.4685193
-0.40576527 0.18918537 -0.3412255 0.5036821 -0.071523786 0.043438185 0.42555565 0.6197383
-1.3482486 -0.6351574 0.07350604 -0.009272608 1.3582538 0.61204344 0.5829248 -0.17525674
0.05689304 0.054401375 -1.1325885 0.65253997 0.68592054 0.052210905 0.37533206 0.2921096
-0.49629965 0.12827858 -0.5258601 -0.049067356 1.1582452 0.3743058 -0.22805208 -0.66443104
0.061452255 0.23159334 0.016210644 -1.3703332 0.2492577 -0.15076251 0.68106806 0.4419035
0.36269107 0.15086213 0.8660914 -0.011188931 0.27209863 0.6792948 1.726996 1.8971735
-0.6379245 0.14119367 0.055017814 0.13774504 0.051988646 1.1437725 1.352187 -0.14667395
-0.14149226 0.11485135 -0.31553844 -0.9421193 -0.41744512 -0.12797496 0.23043342 0.113676764
00000000: 07f8 693f 840a 263e 2fc8 103e 5f5f 893e
00000010: c789 013b b01d e2bd d0db ee3e 5ab3 d33f
00000020: 4fce e03d 2bce 903e 3e7f b73e 1102 5a3f
00000030: a028 ad3f 701b 833f 811c 8a3f ac67 833e
00000040: 1f4e 773e 095a bf3f e9ba a33e 2683 be3c
00000050: fc8c d33e f1e3 4b3f ac29 c6be 4256 50bf
00000060: eec2 343d 327a 5d3e 9841 00be e162 af3e
00000070: 2fe7 1d3e 9a28 47bf aab4 6a3d a88e 26be
00000080: fec8 babd 6dbf 303f 6825 e23e c515 91bf
00000090: 6c54 31bf cd8a dfbc 5140 043e 2e8a 913e
000000a0: 1047 edbe 7cbc c0be 9af3 bbbd a249 35be
000000b0: c37c 11be b3d2 8e3e d74d edbe 0725 febe
000000c0: d434 7c3f ca8b 80be cb10 a43e 8d62 1d3f
000000d0: 886d aabd 2579 b13e fec7 2d3f 6c32 35bd
000000e0: e750 3cbe 5192 50be 3e57 163f cc09 c93e
000000f0: 8dc5 32bf f7bb bfbf 9f57 b7bf 2f43 64bf
00000100: a914 243f d5d9 693f f69f 14c0 abc6 b3be
00000110: 378e d9be 4afa 3a3f 941b cabe 1348 753f
00000120: b015 bb3e 85d2 a8bf 3933 3d3f 2aaf d33d
00000130: 5d46 9a3e 4bd2 ca3e d06e febe 831f e5bf
00000140: 2156 4f3f 3be2 093f 8fcd bbbc e0c3 b8bd
00000150: c11a 673e aafc 483f ed52 3b3f 49b1 b63e
00000160: bac7 5cbf 7331 a5bf b567 65be d3bc 703d
00000170: 0b1d 4cbf 000e 533f 58b9 20c0 1d00 883d
00000180: 9fd5 a1be e339 c3be 46ce 01c0 98d0 583e
00000190: 3d06 e93e 2582 893e eb0d cfbf a566 f6bf
000001a0: 7cbf 883f cf2e 533f 9273 4b3f 9ff3 e83e
000001b0: c176 233f 1104 1dbf eedb e6bf 4dd5 4a3f
000001c0: 148f 203e 1e66 3cbc c42a 033e ade0 4dbd
000001d0: 1ff1 df3d 4bb1 b23e 77a7 573e 21d4 a73e
000001e0: 86e6 b23d bc37 3e3e 5b8e 6bbc 3c5b 123e
000001f0: 0070 8bbe 936b e4bf 4b3a 13be 4c1a d3bd
00000200: fa8e 1e3f 2fbe 123c ebe4 bb3e ada2 ebbe
00000210: d2d7 813e 2330 773e c0e4 c1bf 71f8 bbbf
00000220: 77c0 cfbe cfb9 413e 1cb5 aebe 4ff1 003f
00000230: 107b 92bd 3dec 313d 6ee2 d93e 2ba7 1e3f
00000240: 6993 acbf ad99 22bf 568a 963d 23ec 17bc
00000250: 43db ad3f e1ae 1c3f 8f3a 153f 8176 33be
00000260: ad08 693d fad3 5e3d a9f8 90bf dc0c 273f
00000270: 7d98 2f3f 1adb 553d 862b c03e 648f 953e
00000280: fd1a febe 765b 033e c49e 06bf dafa 48bd
00000290: 6141 943f 03a5 bf3e 7c86 69be 2718 2abf
000002a0: 5cb5 7b3d ce26 6d3e 2fcc 843c 1467 afbf
000002b0: 693d 7f3e 7d61 1abe 7a5a 2e3f 2d41 e23e
000002c0: a5b2 b93e 9a7b 1a3e 2ab8 5d3f c751 37bc
000002d0: 8350 8b3e 44e6 2d3f 340e dd3f 95d6 f23f
000002e0: 054f 23bf 1395 103e 5c5a 613d 090d 0d3e
000002f0: 0cf2 543d 2367 923f 7714 ad3f b231 16be
00000300: 59e3 10be 2f37 eb3d 418e a1be bb2e 71bf
00000310: 5ebb d5be de0b 03be bdf6 6b3e 5dcf e83d

sequential_1/dense_5/MatMul f4 [7, 10]
0.38043803 -0.73346233 -0.013359888 -0.5923213 -0.45881644 -0.3809547 0.35812733 0.62488645
-0.79618335 0.13703218 -1.9361508 -0.25804067 -0.22309047 -0.488001 -0.95045924 -0.5447317
0.3842898 0.81953776 0.42374283 0.5967684 0.29452875 0.17662607 0.32914683 -0.23081918
-0.40780193 0.34338737 0.19518344 0.2095504 -0.54786956 -1.9331579 -1.4361383 0.801186
-0.9096447 -1.0193523 1.3374497 0.48059085 0.37475204 -1.5667764 -0.029866118 -0.7136641
0.121758394 -1.668351 -0.38505113 1.6789331 -1.29696 -0.29149508 -1.300188 -1.4071147
0.42889428 -1.2619255 -0.061625853 0.13959911 1.1752837 -0.2827413 -0.57343596 1.3947852
-0.99942034 -0.53950304 0.6391277 -1.1357954 0.34052116 0.13444136 -0.44857326 -0.50862515
-0.6411231 0.0069937804 -0.62461686 -0.4048144 0.7608422 0.8425398
00000000: c6c8 c23e 30c4 3bbf 6fe3 5abc 5ea2 17bf
00000010: fde9 eabe 7f0c c3be 775c b73e 8ff8 1f3f
00000020: acd2 4bbf 2a52 0c3e cad3 f7bf e81d 84be
00000030: d471 64be 44db f9be 4c51 73bf 8973 0bbf
00000040: a2c1 c43e 3acd 513f d2f4 d83e d0c5 183f
00000050: 79cc 963e 77dd 343e ef85 a83e dd5b 6cbe
00000060: 6acb d0be 78d0 af3e 2bde 473e 6194 563e
00000070: 2e41 0cbf b871 f7bf 61d3 b7bf 871a 4d3f
00000080: 7ade 68bf 237a 82bf 8d31 ab3f 0110 f63e
00000090: 80df bf3e 218c c8bf caa9 f4bc b1b2 36bf
000000a0: 775c f93d 878c d5bf 6c25 c5be 48e7 d63f
000000b0: c902 a6bf d83e 95be 8f6c a6bf 561c b4bf
000000c0: 0898 db3e c686 a1bf 646b 7cbd 12f3 0e3e
000000d0: b26f 963f 78c3 90be b3cc 12bf 5288 b23f
000000e0: 03da 7fbf df1c 0abf df9d 233f be61 91bf
000000f0: ca58 ae3e ffaa 093e 65ab e5be 4235 02bf
00000100: a520 24bf 152c e53b e4e6 1fbf d543 cfbe
00000110: 8ec6 423f b0b0 573f
